…
ype_dt': [1], 'output_sampler_type': [1]}])
[2025-01-16 08:39:10] Minibatches for train: 32
[2025-01-16 08:39:10] Minibatches for val: 1
[2025-01-16 08:39:10] Minibatches for test: 1
[2025-01-16 08:39:10] Folder 'result' already exists!
[2025-01-16 08:39:10] Folder 'E1' already exists!
[2025-01-16 08:39:10] Folder 'variable_time' already exists!
[2025-01-16 08:39:10] Folder 'FNO_concat_1' already exists!
[2025-01-16 08:39:10] Folder 'run_1_1' already exists!
[2025-01-16 08:39:12] Loading Model last state
[2025-01-16 08:39:12] Continue Training
[2025-01-16 08:39:12] model FNO1d_t_concat(
  (fc0): Linear(in_features=31, out_features=32, bias=True)
  (time_embed_x): Sequential(
    (0): Linear(in_features=1, out_features=100, bias=True)
    (1): ReLU()
    (2): Linear(in_features=100, out_features=200, bias=True)
  )
  (time_embed_y): Sequential(
    (0): Linear(in_features=1, out_features=100, bias=True)
    (1): ReLU()
    (2): Linear(in_features=100, out_features=200, bias=True)
  )
  (conv0): SpectralConv1d()
  (conv1): SpectralConv1d()
  (conv2): SpectralConv1d()
  (conv3): SpectralConv1d()
  (w0): Conv1d(32, 32, kernel_size=(1,), stride=(1,))
  (w1): Conv1d(32, 32, kernel_size=(1,), stride=(1,))
  (w2): Conv1d(32, 32, kernel_size=(1,), stride=(1,))
  (w3): Conv1d(32, 32, kernel_size=(1,), stride=(1,))
  (fc1): Linear(in_features=32, out_features=128, bias=True)
  (fc2): Linear(in_features=128, out_features=10, bias=True)
)
[2025-01-16 08:39:12] Number of model parameters_complex_function: 182634
[2025-01-16 08:39:12] Number of model parameters_numbers: 117098
[2025-01-16 08:39:12] Namespace(seed=2048, mode='train', analysis_type='variable_time', subanalysis_type='FNO_concat_1', experiment='run_1_1', test_only_path='', test_only_protocol_no=1, test_only_epoch_index=-1, d
…
