…
ler_type': [1]}])
[2025-01-20 10:03:11] Minibatches for train: 1
[2025-01-20 10:03:11] Minibatches for val: 1
[2025-01-20 10:03:11] Minibatches for test: 1
[2025-01-20 10:03:11] Folder 'result' already exists!
[2025-01-20 10:03:11] Folder 'B1' already exists!
[2025-01-20 10:03:11] Folder 'variable_time' already exists!
[2025-01-20 10:03:11] Folder 'B1_1_FNO_attention' already exists!
[2025-01-20 10:03:11] Folder 'run_4_new_attention_3' already exists!
[2025-01-20 10:03:11] New Training
[2025-01-20 10:03:11] Model with Random Intitialisation
[2025-01-20 10:03:11] model FNO1d_t_attention(
  (fc0): Linear(in_features=11, out_features=32, bias=True)
  (t_embed_high_in): Linear(in_features=11, out_features=32, bias=True)
  (t_embed_high_out): Linear(in_features=11, out_features=32, bias=True)
  (time_embed_x): Sequential(
    (0): Linear(in_features=1, out_features=128, bias=True)
    (1): ReLU()
    (2): Linear(in_features=128, out_features=256, bias=True)
  )
  (time_embed_y): Sequential(
    (0): Linear(in_features=1, out_features=128, bias=True)
    (1): ReLU()
    (2): Linear(in_features=128, out_features=256, bias=True)
  )
  (conv0): SpectralConv1d()
  (attend_0): SelfAttention(
    (wq): Linear(in_features=32, out_features=32, bias=False)
    (wk): Linear(in_features=32, out_features=32, bias=False)
    (wv): Linear(in_features=32, out_features=32, bias=False)
    (softmax): Softmax(dim=-1)
  )
  (conv1): SpectralConv1d()
  (attend_1): SelfAttention(
    (wq): Linear(in_features=32, out_features=32, bias=False)
    (wk): Linear(in_features=32, out_features=32, bias=False)
    (wv): Linear(in_features=32, out_features=32, bias=False)
    (softmax): Softmax(dim=-1)
  )
  (conv2): SpectralConv1d()
  (attend_2): SelfAttention(
    (wq): Linear(in_features=32, out_features=32, bias=False)
    (wk): Linear(in_features=32, out_features=32, bias=False)
    (wv): Linear(in_features=32, out_features=32, bias=False)
    (softmax): Softmax(dim=-1)
  )
  (conv3): SpectralConv1d()
  (attend_3): SelfAttention(
    (wq): Linear(in_features=32, out_features=32, bias=False)
    (wk): Linear(in_features=32, out_features=32, bias=False)
    (wv): Linear(in_features=32, out_features=32, bias=False)
    (softmax): Softmax(dim=-1)
  )
  (w0): Conv1d(32, 32, kernel_size=(1,), stride=(1,))
  (w1): Conv1d(32, 32, kernel_size=(1,), stride=(1,))
  (w2): Conv1d(32, 32, kernel_size=(1,), stride=(1,))
  (w3): Conv1d(32, 32, kernel_size=(1,), stride=(1,))
  (fc1): Linear(in_features=32, out_features=128, bias=True)
  (fc2): Linear(in_features=128, out_features=10, bias=True)
)
[2025-01-20 10:03:11] Number of model parameters_complex_function: 220810
[2025-01-20 10:03:11] Number of model parameters_numbers: 155274
[2025-01-20 10:03:11] Namespace(seed=2048, mode='train', analysis_type='variable_time', subanalysis_type='B1_1_FNO_attention', experiment='run_4_new_attention_3', test_only_path='', test_only_protocol_no=1, test_on
…
